app/src/main/assets/dummy.onnx (onnx, 2081 bytes, 2 tensors)

layer.weight f4 [5, 5]
000000 f1 05 8e 3e 3a 4a cf be 6d 61 90 be 8a d3 bc bc
       0.27738908 -0.40486318 -0.2819933 -0.023050088
000010 15 1d 5e 3d 32 90 3e 3e 1d 27 db 3d d2 73 9d be
       0.054226954 0.18609694 0.1070082 -0.30752426
000020 97 6e 57 be 9f b1 96 be 3d 94 82 bd f1 4e a2 3e
       -0.2103828 -0.2943239 -0.063759305 0.31700853
000030 0e 81 81 3e 8b 38 55 3e b8 59 8c be 4b 4e de be
       0.25293773 0.2082235 -0.274122 -0.43419108
000040 9d d3 d5 be 6b b5 93 bd 62 70 2c be 79 52 a3 bd
       -0.4176301 -0.07212337 -0.16839746 -0.07974715
000050 93 89 f5 3d 7c cf f7 bc 70 b8 94 3e ba 48 e4 be
       0.11989131 -0.030250303 0.29046965 -0.44586736
000060 f5 fc de be
       -0.43552366

layer.bias f4 [5]
000000 82 ac d4 3e 43 35 a4 be 37 9d 9c 3e 54 ae be be
       0.41537863 -0.32071885 0.30588695 -0.37242377
000010 c9 c1 ac be
       -0.33741596
